model/model.pth (torch, 16787 bytes, 4 tensors)

linear1.weight f4 [256, 11]
0	0xbe11bb9a	-0.1423172
1	0xbd5cf10c	-0.053940818
2	0x3dc46c14	0.09590927
3	0x3e89596e	0.26826042
4	0xbe88885d	-0.26666537
5	0xbe3da32a	-0.18519273
6	0xbd851a44	-0.064991504
7	0xbe349a56	-0.17637
8	0x3e1b9a7e	0.15195653
9	0x3d1c973c	0.038230166
10	0x3d37a63a	0.04483626
11	0xbe5f5d92	-0.21813038
12	0xbe90acea	-0.28256923
13	0x3e9468e0	0.28986263
14	0x3de885c2	0.11353637
15	0x3de095fe	0.10966109
16	0xbe82ed4c	-0.25571668
17	0x3e851961	0.25995925
18	0xbd0a4b7d	-0.033763397
19	0xbe7e063b	-0.24807064
20	0x3e296ee1	0.16546203
21	0x3d53973e	0.051657908
22	0x3e460860	0.19339132
23	0xbc39adc0	-0.011332929
24	0x3e6b7f00	0.22997665
25	0xbc898f40	-0.01679194
26	0x3db6915d	0.089144446
27	0xbe4713ae	-0.19441101
28	0xbc528dc0	-0.012851179
29	0x3e267eb4	0.16259271
30	0x3da0fe7c	0.07861039
31	0xbe888923	-0.26667127
32	0xbe873e7d	-0.26414862
33	0x3d4bbe7d	0.04974221
34	0x3e9dcd13	0.30820522
35	0x3e9604e4	0.29300606
36	0xbe386fc6	-0.18011388
37	0x3d514f28	0.05110088
38	0xbe0655c2	-0.13118652
39	0xbe6eb838	-0.23312461
40	0xbd39b9b3	-0.045343112
41	0x3e4c75cd	0.19966812
42	0x3e7647d1	0.24050833
43	0x3dd2d89a	0.1029522
44	0x3d04ab9b	0.03239022
45	0x3e1435c7	0.1447364
46	0xbe047b6b	-0.12937705
47	0x3e6d5b8f	0.23179458
48	0x3e4fa5c5	0.2027808
49	0x3e57e651	0.21083952
50	0x3e93592d	0.28778973
51	0xbe7bce3b	-0.2459039
52	0x3de9bf85	0.114134826
53	0xbe2b2a0b	-0.16715257
54	0x3d8d8626	0.069103524
55	0x3d36a4dc	0.044590816
56	0x3e5c1569	0.21492542
57	0x3e107112	0.14105633
58	0x3d8d2a01	0.06892777
59	0x3c0ee576	0.0087217
60	0x3e8418cb	0.25800166
61	0xbdaa82a0	-0.08325696
62	0x3e767737	0.24068914
63	0x3e5f6c49	0.21818651
64	0x3b6ee775	0.0036453877
65	0xbd9ba48a	-0.07599743
66	0xbe77e95e	-0.24210116
67	0xbe73cf34	-0.2380951
68	0xbe44a748	-0.19204438
69	0x3e5dcf3d	0.21661086
70	0xbe98677c	-0.29766452
71	0x3d72c7eb	0.059272688
72	0x3e60c946	0.2195178
73	0xbb8a49e4	-0.004220234
74	0xbe61cf35	-0.220517
75	0xbd9e084c	-0.07716426
76	0xbe951359	-0.29116324
77	0x3e92f345	0.28701225
78	0x3b5081e4	0.0031815702
79	0xbe308b81	-0.17240717
80	0xbc5ecb76	-0.013598314
81	0xbd008887	-0.031380203
82	0x3d1d0961	0.038339023
83	0xbe8ac6ed	-0.27104893
84	0x3cfe4d92	0.031042848
85	0x3cd77e92	0.02630547
86	0xbe3eefce	-0.18646166
87	0x3e6275f9	0.22115315
88	0xbd720a8e	-0.059092097
89	0x3e00da58	0.12583292
90	0x3e73bcbc	0.23802465
91	0xbd18e921	-0.037331704
92	0x3e53a640	0.20668888
93	0xbd451711	-0.0481177
94	0xbe67ccfe	-0.22636792
95	0xbdcd1d4e	-0.10015355
96	0x3e7edf22	0.24889806
97	0xbdce4826	-0.10072355
98	0x3dcd5448	0.10025841
99	0xbe6d5f52	-0.23180893
100	0x3e674bb8	0.22587478
101	0xbe4e1c08	-0.2012788
102	0xbe3a4891	-0.18191744
103	0x3dc33f34	0.095335394
104	0xbea98031	-0.33105615
105	0xbd47ceff	-0.04878139
106	0xbe725a43	-0.23667245
107	0xbce66fe3	-0.028129524
108	0x3e906606	0.28202838
109	0xbe70ed9d	-0.23528142
110	0xbe777cbc	-0.24168676
111	0xbdd2ea83	-0.10298636
112	0x3e263688	0.1623174
113	0xbe9c218e	-0.3049435
114	0x3e187b4f	0.14890788
115	0xbe7f3fa9	-0.24926628
116	0xbc87d5df	-0.016581474
117	0xbe6ac057	-0.22924934
118	0xbdba4b00	-0.09096336
119	0x3e597d7e	0.21239278
120	0xbd8e021f	-0.06933998
121	0xbce3eca0	-0.027822793
122	0x3e27861e	0.16359755
123	0x3e702cc8	0.23454583
124	0x3e24968e	0.16073057
125	0x3e0142b7	0.12623106
126	0x3e04895b	0.12943022
127	0xbdfd0110	-0.12353718
128	0xbe20cb3d	-0.15702529
129	0xbe1847ec	-0.14871186
130	0x3b81a067	0.003955889
131	0xbddcad46	-0.10775237
132	0xbe6bbc02	-0.23020938
133	0x3d99e925	0.07515172
134	0x3e374542	0.17897514
135	0xbe7753d9	-0.24153079
136	0x3e042a13	0.12906675
137	0xbd53d407	-0.051715877
138	0x3dc1a972	0.09456147
139	0xbc4051b1	-0.011738227
140	0xbe2dff49	-0.16991915
141	0x3d9eed7c	0.0776014
142	0xbe887c1c	-0.26657188
143	0xbe2392f8	-0.15974033
144	0xbe65b1b9	-0.22431077
145	0x3e385750	0.18002057
146	0x3e84fa18	0.25972056
147	0x3e83f95d	0.25776187
148	0x3e89b6e1	0.26897338
149	0xbe6804ac	-0.22658032
150	0xbe6881ef	-0.22705816
151	0x3e5b5c1a	0.21421853
152	0xbbbc9fc2	-0.0057563493
153	0x3d8d682d	0.069046356
154	0xbe6e0f0d	-0.23247929
155	0x3e791852	0.24325684
156	0xbd6f02b8	-0.058352202
157	0x3d4b3dbd	0.049619425
158	0xbe117537	-0.1420487
159	0x3e605543	0.21907525
160	0xbe149276	-0.14508995
161	0xbe5398d0	-0.20663762
162	0x3e556e81	0.20842935
163	0x3d5296dd	0.051413406
164	0x3da0075b	0.07813903
165	0xbe56400d	-0.20922871
166	0xbe561347	-0.20905791
167	0x3e65fa98	0.22458875
168	0xbda01662	-0.07816769
169	0xbd0c61f4	-0.034273103
170	0xbe500740	-0.20315266
171	0xbe301401	-0.17195131
172	0xbc15834d	-0.009125543
173	0xbe906b21	-0.28206733
174	0xbe2334f4	-0.15938169
175	0xbe5daae0	-0.21647215
176	0x3e138327	0.144055
177	0x3dbe934f	0.09305441
178	0x3e96a5ee	0.2942347
179	0xbe1219fd	-0.14267726
180	0xbdbecf5c	-0.093168944
181	0xbe91fabb	-0.28511605
182	0x3d72b09c	0.05925046
183	0x3e09439a	0.13404694
184	0x3e8c4b73	0.27401313
185	0x3e2bdacb	0.16782682
186	0xbe3dd389	-0.18537726
187	0x3dc32219	0.09527988
188	0x3db819cb	0.089892946
189	0x3e17460e	0.14772817
190	0x3d94b08c	0.07260236
191	0xbe168256	-0.14698157
192	0xbe3541b1	-0.1770084
193	0xbe90f87f	-0.28314587
194	0xbde25954	-0.11052194
195	0x3e88842e	0.26663345
196	0xbe242a4b	-0.16031758
197	0x3e89ce82	0.26915365
198	0x3e134603	0.14382176
199	0xbe6cba52	-0.2311795
200	0xbe331769	-0.17489399
201	0x3df7d33b	0.12100836
202	0x3e024d04	0.12724692
203	0x3e7c388c	0.24630946
204	0xbe8734c6	-0.2640745
205	0x3e75007b	0.23925965
206	0xbe85ad16	-0.26108617
207	0xbdf684cb	-0.12037047
208	0xbe440a3b	-0.19144528
209	0xbb147434	-0.002265227
210	0xbddb87b6	-0.10719244
211	0xbe1947ec	-0.14968842
212	0xbd7a47ca	-0.06110362
213	0x3e5b47eb	0.21414153
214	0x3e4aca4a	0.1980373
215	0xbe8ed56b	-0.278972
216	0x3e5b6c84	0.21428114
217	0xbe7531cf	-0.23944782
218	0xbe580e4f	-0.21099208
219	0xbdd2906d	-0.10281453
220	0x3dbca470	0.092110515
221	0xbe3e63fd	-0.1859283
222	0x3d885a54	0.06657854
223	0xbafe14b8	-0.0019384837
224	0x3d8682ae	0.06567894
225	0xbdb47ea5	-0.08813218
226	0xbd384f84	-0.044997707
227	0xbe8826a6	-0.26591986
228	0x3d0b0a85	0.03394558
229	0xbe4f1faf	-0.2022693
230	0xbcce544d	-0.025186682
231	0x3e0f7d3d	0.14012618
232	0x3e7a4266	0.24439391
233	0xbdd17084	-0.10226539
234	0xbe2e36f0	-0.17013144
235	0x3d938ec8	0.07204968
236	0x3e1833c5	0.14863499
237	0xbe27a0b9	-0.16369905
238	0xbde890d8	-0.11355752
239	0x3e1d2685	0.15346725
240	0x3d006b9a	0.031352617
241	0xbd678b20	-0.056529164
242	0x3dbf6093	0.09344592
243	0xbe6315ef	-0.22176336
244	0x3e77a27c	0.24183077
245	0xbe68cabb	-0.22733586
246	0xbd00ea1d	-0.031473268
247	0xbe459b9a	-0.19297639
248	0x3d0726e4	0.032996073
249	0x3e070428	0.13185179
250	0xbdc03415	-0.09384934
251	0x3e74ead9	0.23917712
252	0xbe866675	-0.26250044
253	0xbdc2d9a4	-0.09514168
254	0xbe5e0c14	-0.21684295
255	0x3e3ba3f0	0.18324256

linear1.bias f4 [256]
0	0xbe4a4281	-0.19751932
1	0xbe94bfcc	-0.2905258
2	0xbe53012c	-0.20605916
3	0xbe15390c	-0.14572543
4	0xbe0ffa15	-0.14060242
5	0xbcd3b6bb	-0.025843969
6	0xbd1944f4	-0.037419274
7	0xbe45d370	-0.19318938
8	0x3db60199	0.088870235
9	0x3d3704ae	0.044682197
10	0x3e39ab76	0.18131813
11	0xbc438466	-0.011933422
12	0x3d8cf954	0.06883493
13	0xbd5ab6e1	-0.053397063
14	0xbe628dd4	-0.22124416
15	0x3e1ad6a7	0.15120946
16	0x3e5ae397	0.21375881
17	0x3e7dca0c	0.24784106
18	0x3dc8b4b6	0.09800093
19	0xbd420cfb	-0.04737566
20	0x3e20869a	0.15676346
21	0x3d8b7a86	0.06810479
22	0x3d39123f	0.045183416
23	0xbe8e4bf3	-0.2779232
24	0x3e6b631d	0.22987027
25	0x3e4333cd	0.19062729
26	0xbde2ec7a	-0.110802606
27	0xbe43d07b	-0.19122498
28	0xbe44f554	-0.1923421
29	0xbd0019e8	-0.031274706
30	0xbdbf9969	-0.093554325
31	0xbe5fb3a5	-0.21845873
32	0xbe910f46	-0.28331965
33	0xbcb24e00	-0.021765709
34	0xbcfab772	-0.030605052
35	0x3e38c24f	0.18042873
36	0x3c68683b	0.014185007
37	0xbe501e7e	-0.20324132
38	0x3e327265	0.1742645
39	0x3ca3fb19	0.020017194
40	0x3dec7809	0.115463324
41	0x3e3d79ec	0.18503541
42	0xbdc6651b	-0.09687253
43	0x3b83ddde	0.0040242514
44	0xbe812028	-0.25219846
45	0x3e6f22bb	0.23353092
46	0x3cda123a	0.02662002
47	0x3d57b123	0.052659165
48	0x3e758bbd	0.23979087
49	0xbe6fc5ab	-0.23415248
50	0xbe837942	-0.2567845
51	0xbe97ba7a	-0.29634458
52	0xbdbd8688	-0.092541754
53	0xbe87e9f9	-0.26545694
54	0xbda71fc2	-0.08160354
55	0xbdaf7a22	-0.08568217
56	0x3d9630f1	0.073335536
57	0x3e607b5c	0.21922058
58	0xbe86fe7b	-0.26366028
59	0x3e58bb8f	0.21165298
60	0x3e1009d7	0.14066254
61	0xbe8dfefb	-0.27733597
62	0x3e1d23ec	0.15345734
63	0xbca9fd01	-0.020750524
64	0xbd4bd2af	-0.04976147
65	0x3e8e2837	0.27765056
66	0x3e4b09a2	0.19827893
67	0x3d26f0e2	0.040757068
68	0xbe0b29ef	-0.13590215
69	0x3d93c096	0.07214467
70	0x3e76f031	0.24115063
71	0x3e0b6b85	0.13615234
72	0x3e0cd59f	0.13753365
73	0xbe58537b	-0.21125595
74	0xbe2c3e9a	-0.16820756
75	0xbe3c6bd8	-0.18400514
76	0x3e4b8e47	0.19878493
77	0x3d658915	0.056038935
78	0xbe8d811a	-0.2763756
79	0x3e618f8e	0.22027418
80	0xbdbaa816	-0.09114091
81	0x3e6706d9	0.22561206
82	0x3e16e529	0.14735855
83	0xbe04fc1a	-0.12986794
84	0x3e48a9aa	0.19595972
85	0xbea0ae81	-0.31383136
86	0xbe8ba994	-0.27277815
87	0xbe08fdd4	-0.13378078
88	0xbd36b5df	-0.04460704
89	0xbe591279	-0.21198453
90	0x3e538730	0.20657039
91	0xbdcb8420	-0.0993731
92	0x3c6e8cbe	0.014559923
93	0x3e687072	0.22699144
94	0xbd3261e4	-0.043550387
95	0xbe6733a3	-0.22578292
96	0xbe804bf5	-0.2505795
97	0xbe8e6454	-0.2781092
98	0x3ddc2cf5	0.107507624
99	0xbdc77c88	-0.09740549
100	0x3dfb3397	0.12265699
101	0x3c2f3f65	0.010696267
102	0xbe8321ba	-0.2561167
103	0xbd5993ee	-0.053119592
104	0x3e9c6a80	0.30550003
105	0xbe103748	-0.14083588
106	0xbe1c03b6	-0.1523579
107	0xbe030fbe	-0.12798974
108	0xbe13ef5c	-0.14446777
109	0xbd21ef15	-0.039534647
110	0xbe5cd6ae	-0.21566269
111	0x3de8952e	0.11356579
112	0xbe1ccd61	-0.15312721
113	0x3d9aa31f	0.07550644
114	0xbe10d45c	-0.14143509
115	0x3d6ce436	0.057834826
116	0xbe97dd24	-0.29660904
117	0xbd49cc0f	-0.04926687
118	0x3e39271d	0.18081327
119	0xbcea1cc9	-0.028578179
120	0xbe236fa1	-0.15960552
121	0x3e8c785c	0.27435577
122	0xbd324b6f	-0.04352897
123	0xbe633a30	-0.22190166
124	0x3d8721be	0.06598233
125	0x3e23ab76	0.15983376
126	0x3d2dae09	0.0424023
127	0xbdb0e747	-0.08637863
128	0xbe935aae	-0.2878012
129	0xbd2a63bc	-0.04159902
130	0x3e812bd2	0.25228745
131	0x3d41c6a8	0.047308594
132	0xbe13d0aa	-0.14435068
133	0x3da32bab	0.079673134
134	0x3e1abd2b	0.15111224
135	0x3e859d56	0.260966
136	0xbe6de8d2	-0.23233345
137	0xbdb2c963	-0.08729818
138	0xbdb52df5	-0.08846656
139	0xbc51b8f4	-0.012800444
140	0xbdb61b77	-0.08891957
141	0xbdcf4cb4	-0.10122052
142	0x3d87b5f7	0.06626504
143	0x3cb861b5	0.022507528
144	0x3db28958	0.087176025
145	0xbd07e90d	-0.03318124
146	0xbc3ced8b	-0.011531244
147	0x3e05d992	0.13071278
148	0xbe81c564	-0.2534591
149	0x3d0470ea	0.032334246
150	0x3e836f42	0.2567082
151	0x3df9f7a5	0.122054376
152	0xbe865963	-0.26240072
153	0xbe22db06	-0.15903863
154	0x3e9eda95	0.3102614
155	0xbe235c33	-0.1595314
156	0x3e205117	0.15655933
157	0xbe0daa08	-0.13834393
158	0x3e9714a0	0.29507923
159	0xbc2c366a	-0.01051102
160	0x3e23ee3c	0.16008848
161	0xbdf8aa4a	-0.12141855
162	0x3e8e7e45	0.2783071
163	0x3e47b822	0.19503835
164	0xbdaf46d6	-0.08558433
165	0x3dc712b4	0.09720364
166	0x3e4e4b1e	0.20145842
167	0xbd3591a4	-0.044328347
168	0xbe2a64d5	-0.16640027
169	0xbd7ba495	-0.061436255
170	0x3e6f7711	0.23385264
171	0x3e28d455	0.16487248
172	0xbe8adddd	-0.27122393
173	0x3e47560e	0.19466421
174	0x3e91f21b	0.28505024
175	0x3e277a6b	0.16355292
176	0x3cebaad6	0.028767984
177	0xbe180d5a	-0.14848843
178	0xbdc878c1	-0.09788657
179	0x3e89ec83	0.26938257
180	0x3e78738c	0.24262828
181	0x3df8df81	0.12152005
182	0xbe2084c1	-0.15675642
183	0xbe8090cf	-0.2511048
184	0xbda0d21b	-0.078525744
185	0xbe837d38	-0.25681472
186	0x3d7c98b2	0.06166906
187	0x3e932b71	0.2874408
188	0xbe6f7b22	-0.23386815
189	0xbe32d5d1	-0.17464377
190	0xbe6b02f0	-0.2295034
191	0xbd8214a4	-0.06351593
192	0x3e4f4e3c	0.20244688
193	0xbe5a26a4	-0.21303803
194	0xbdfc2d86	-0.123133704
195	0xbe505dac	-0.20348233
196	0xbde9b76b	-0.11411937
197	0x3e304c03	0.17216496
198	0xbe925af7	-0.28585026
199	0x3dbc3abe	0.09190892
200	0x3d6ba1dd	0.05752741
201	0xbd7ce0a2	-0.061737664
202	0xbdecad7f	-0.11556529
203	0xbe99f475	-0.30069318
204	0x3e9589fd	0.2920684
205	0xbe213d69	-0.15746082
206	0x3d8295d8	0.06376237
207	0x3e2c1068	0.16803133
208	0x3e234f70	0.15948272
209	0xbe1396f1	-0.14413048
210	0x3e3b2607	0.18276225
211	0xbcd8a468	-0.026445583
212	0xbe092ae9	-0.13395275
213	0xbd4340ae	-0.047669105
214	0x3e4e95af	0.20174287
215	0xbe2ac44f	-0.16676448
216	0xbe01be5d	-0.12670274
217	0x3e40c0ce	0.18823549
218	0x3e3993eb	0.18122832
219	0x3e7ab3b4	0.24482614
220	0xbe49a4ac	-0.19691724
221	0xbd97eabb	-0.07417818
222	0x3e403e56	0.1877378
223	0xbe62c9d6	-0.22147307
224	0xbe12e96f	-0.1434686
225	0xbcd2b44a	-0.025720734
226	0xbe4d8caa	-0.2007319
227	0x3de403a0	0.11133504
228	0x3d92ec43	0.071739696
229	0xbe2d0235	-0.16895373
230	0xbc9eb61d	-0.019373948
231	0x3ae8dc2f	0.0017765815
232	0xbd6af9e2	-0.057367213
233	0x3b832761	0.004002497
234	0xbd6039be	-0.054742567
235	0xbe1a2746	-0.15054044
236	0x3e8947cf	0.26812598
237	0xbdd54112	-0.10412802
238	0xbe25b0bf	-0.16180705
239	0x3e815a89	0.25264385
240	0xbc92a038	-0.017898664
241	0x3e3caaa0	0.18424463
242	0xbe16f4d7	-0.14741836
243	0xbe4d74c5	-0.20064075
244	0x3e8321f4	0.25611842
245	0xbdf7f999	-0.12108154
246	0xbdb2001e	-0.086914286
247	0xbce9e5dc	-0.028551988
248	0xbe81122b	-0.25209174
249	0x3e4370e5	0.19086035
250	0xbe792a79	-0.24332608
251	0xbe748476	-0.23878655
252	0x3ce4d098	0.027931497
253	0xbc063e3a	-0.008193547
254	0x3e1d4103	0.15356831
255	0xbdfba417	-0.12287157

linear2.weight f4 [3, 256]
0	0xbcc29ced	-0.023756469
1	0x3c7e01a0	0.015503317
2	0x3c58313f	0.013195335
3	0x3d2d7c02	0.04235459
4	0x3cb0bc97	0.021574302
5	0xbcf7baca	-0.030240435
6	0x3cadfc1e	0.021238383
7	0x3cebc067	0.028778268
8	0x3cb38a40	0.021916509
9	0x3cfa432f	0.030549614
10	0x3d1ec68b	0.038763564
11	0x3c8f7542	0.017511968
12	0xbc030158	-0.007995926
13	0x3d4f2a3f	0.0505774
14	0xbadee9a7	-0.001700689
15	0x3c6cb7d4	0.014448125
16	0xbcd82d99	-0.02638893
17	0xbd06f3c4	-0.032947317
18	0xbb66bd11	-0.0035207907
19	0xbc13aa7f	-0.009012817
20	0x3d35bc14	0.04436882
21	0xbd68d962	-0.056847937
22	0xbd6048db	-0.05475698
23	0x3b187aa0	0.002326645
24	0xbd234e27	-0.039869454
25	0x3d7c92e4	0.061663523
26	0xbd20a437	-0.039219107
27	0x3b08beab	0.00208656
28	0xbd4f1137	-0.050553527
29	0xbd733f5d	-0.0593866
30	0xbda03d60	-0.07824206
31	0xbb641b35	-0.0034806256
32	0x3cda3678	0.0266373
33	0x3d2cb6fa	0.042166688
34	0x3cf4fac4	0.02990473
35	0xbd02919e	-0.031877153
36	0x3ccfeba6	0.02538092
37	0x3cde39a1	0.027127089
38	0xbd8d554f	-0.06901037
39	0x3c185485	0.009297495
40	0xbb98e56f	-0.0046660225
41	0x3c8a3a51	0.01687351
42	0xbb307f70	-0.0026931427
43	0x3c8894c2	0.016672496
44	0x3d93181d	0.071823336
45	0x3a608818	0.00085652014
46	0xbcd104d3	-0.025514996
47	0xbd9f2203	-0.07770159
48	0x3d49a763	0.049231898
49	0xbd32d709	-0.043662105
50	0xbc095260	-0.008381456
51	0x3c5ce240	0.013481677
52	0x3d844949	0.064592905
53	0x3bb1f37d	0.0054306374
54	0xbcfe7b95	-0.031064788
55	0xbd351b89	-0.044215713
56	0x3d830617	0.06397646
57	0xbd5e8bc4	-0.05433251
58	0xbc297fc1	-0.0103454
59	0x3ced0e3a	0.028937448
60	0x3cd95759	0.026530908
61	0x3d3d611c	0.04623519
62	0xbc7cccfa	-0.01542973
63	0x3d39bd63	0.04534663
64	0x3d35c36c	0.044375822
65	0xbd3d3d22	-0.04620088
66	0xbc929841	-0.017894866
67	0xbb18be63	-0.0023306839
68	0xbd0ba8ae	-0.034096412
69	0xbd1ad9ee	-0.03780549
70	0xbd0b4570	-0.034001768
71	0xbc6bc779	-0.01439082
72	0xbc01dc5e	-0.007926075
73	0xbcba7044	-0.02275861
74	0x3d07698d	0.033059645
75	0xbc9e69cd	-0.01933756
76	0xbce26019	-0.027633714
77	0x3d0f601e	0.035003774
78	0xbd2da0f9	-0.042389844
79	0x3c91b337	0.017785652
80	0x3d8af63a	0.06785245
81	0x3bd5c987	0.006524268
82	0xba226180	-0.0006194338
83	0x3c8a8bf2	0.016912434
84	0xbab285a7	-0.0013620154
85	0x3d43441e	0.047672383
86	0x3d219e42	0.039457567
87	0xbce17ba8	-0.027524784
88	0xbd327050	-0.04356414
89	0xbd0c79c1	-0.0342958
90	0x3c23eab2	0.010004686
91	0x3c524f67	0.012836314
92	0x3bf1b408	0.0073761977
93	0x3d1c3c64	0.03814353
94	0xbc0e418d	-0.008682621
95	0xbcb8b410	-0.022546798
96	0xbc86f19b	-0.016472628
97	0xbd3854d0	-0.04500276
98	0xbccd1ddf	-0.025038658
99	0xbd717e89	-0.058958564
100	0x3c379235	0.011204292
101	0xbd46599f	-0.048425313
102	0xbad75700	-0.0016429126
103	0xbd1ff3c9	-0.03905085
104	0x3c72a0ca	0.014808843
105	0x3d0b83e9	0.034061346
106	0x3da08e22	0.0783961
107	0xbb9abb85	-0.004722061
108	0xbce7ff95	-0.028320113
109	0x3d346b24	0.04404749
110	0x3c8fe564	0.017565437
111	0xbcfc5397	-0.030801577
112	0x3d1ca7d8	0.038246006
113	0xbbd04bfd	-0.0063567148
114	0x3c36a356	0.011147341
115	0x3d3c6664	0.045996085
116	0xbc85e8c4	-0.016346343
117	0xbd002c62	-0.031292327
118	0x3a9d5072	0.0012002124
119	0xbd0b6898	-0.034035295
120	0xb9daf3c4	-0.0004176182
121	0xbcc3c178	-0.023895964
122	0xbd332ffe	-0.04374694
123	0x3bf02040	0.0073280632
124	0xba41814e	-0.00073816336
125	0x3c8a7907	0.016903413
126	0xbd611dae	-0.054959945
127	0xbc8a470d	-0.016879583
128	0x3c7d6aff	0.015467404
129	0xbd3c41af	-0.04596108
130	0xbdaee5fd	-0.085399605
131	0xbd126015	-0.035736162
132	0xbcfb40f8	-0.030670628
133	0x3b4edb10	0.0031563677
134	0xbd2f0fd0	-0.04273969
135	0xbd946eec	-0.07247719
136	0xbd2f0f68	-0.042739302
137	0xbaf47cf5	-0.0018652963
138	0xbc265d4f	-0.010154082
139	0x3d5cf677	0.053945985
140	0xbd383f70	-0.044982374
141	0xbb4f86b1	-0.0031665976
142	0x3d0c38aa	0.034233727
143	0xbc4f3c8d	-0.012648714
144	0xbbe9e5df	-0.0071379985
145	0x3b50d48b	0.0031864967
146	0x3d2e2337	0.042514052
147	0xbd4a5c13	-0.049404215
148	0x3d28d71c	0.04122077
149	0xbcad8132	-0.02117977
150	0xbd741f40	-0.059600115
151	0xbb67ad13	-0.0035350963
152	0xbcc054f1	-0.023478003
153	0x3d145362	0.036212333
154	0xbd9bb5a5	-0.07603005
155	0x3c4aa7ee	0.012369139
156	0xbd8085d9	-0.062755294
157	0xbd379828	-0.044822842
158	0xbcff06e1	-0.03113121
159	0x3d51c625	0.051214356
160	0xbd75d838	-0.060020655
161	0x3d13726f	0.035997804
162	0xbb40fb1c	-0.0029446548
163	0x3c5d9e1b	0.013526465
164	0x3cc461fe	0.023972508
165	0x3d2dbb33	0.042414855
166	0x3d793f14	0.06085117
167	0x3c928d06	0.01788951
168	0xbd8ba4a9	-0.06818516
169	0x39c96c3a	0.00038418343
170	0xbd463b98	-0.048396677
171	0xbc9f1e57	-0.019423647
172	0x3cca28ac	0.024677597
173	0x3d1331be	0.03593611
174	0x3cfe5f32	0.031051252
175	0xbd3fcaa6	-0.04682412
176	0x3d86608f	0.06561386
177	0x39e1dbde	0.00043079158
178	0xbc49ef58	-0.01232513
179	0x3cd5755f	0.026056943
180	0x3c2f705c	0.010707941
181	0xbd4c21cf	-0.04983693
182	0xbcabc977	-0.02097009
183	0x3d0a5127	0.0337688
184	0xbd2519bb	-0.04030774
185	0xbd40f373	-0.04710717
186	0x3be450aa	0.0069676237
187	0xbcb07d1e	-0.021544036
188	0xbd5a4dfc	-0.053297028
189	0x3d379518	0.04481992
190	0xbd340143	-0.043946516
191	0x3cb309ff	0.021855352
192	0xbd0e4303	-0.034731876
193	0xbd604466	-0.05475273
194	0xbc2dd09b	-0.010608817
195	0xbb73bf9b	-0.0037193063
196	0x3d360ff1	0.044448797
197	0xbd9b6a5c	-0.07588646
198	0xbc0cada9	-0.008586326
199	0xbd37536c	-0.04475729
200	0x3d8d934c	0.0691286
201	0x3ba41b1c	0.0050081145
202	0xbd8d1f5c	-0.06890747
203	0xbd50dabc	-0.05098985
204	0xbd80ecfe	-0.06295203
205	0x3c41a12b	0.011818211
206	0xbd7443ac	-0.05963485
207	0x3ccb86dc	0.02484458
208	0xbd14fde8	-0.036374956
209	0xbd45c78d	-0.04828601
210	0xbd954c21	-0.07289911
211	0xbcd64791	-0.026157172
212	0x3c7f7c46	0.015593594
213	0x3d309413	0.043109965
214	0xbbb8433e	-0.0056232503
215	0x3c3b0808	0.011415489
216	0xbd6e9df9	-0.058256123
217	0xbb6ed474	-0.003644255
218	0xbd32e559	-0.043675754
219	0xbc3eaa98	-0.011637352
220	0x3caf1cb5	0.021375993
221	0x3d59b554	0.053151444
222	0x3d1f3d44	0.038876787
223	0x3cb8bfb8	0.022552356
224	0xbcc597ce	-0.024120238
225	0xbc75f53f	-0.0150120845
226	0x3cbd3d27	0.023100449
227	0x3d3dad83	0.04630805
228	0xbd396663	-0.04526366
229	0xbd80e0a8	-0.0629285
230	0x3c7ff71f	0.015622883
231	0x3ae4b846	0.0017449937
232	0x3d059f43	0.032622587
233	0x3cbc8204	0.023011215
234	0xbd7c1f2f	-0.061553176
235	0x3d78c89c	0.06073819
236	0xbc2fc805	-0.010728841
237	0xbd66a636	-0.056310855
238	0x3c936baf	0.017995683
239	0xbd2defec	-0.042465135
240	0xbc8f3f8d	-0.017486358
241	0xbd572783	-0.052527916
242	0x3c97f72a	0.018550474
243	0xbd791660	-0.060812354
244	0xbd70e0bf	-0.058808085
245	0xbd22a464	-0.039707556
246	0xbccc5199	-0.024941253
247	0x3d793a23	0.06084646
248	0xbd91e5ca	-0.07123907
249	0xbc5c42ce	-0.013443662
250	0xbd26aa49	-0.04068974
251	0x3ca2cc4b	0.019872805
252	0x3c428df0	0.011874661
253	0x3d39bf41	0.04534841
254	0xbd03e867	-0.032204058
255	0xbcc35e88	-0.023848787

linear2.bias f4 [3]
0	0xbca69a79	-0.02033733
1	0x3c697398	0.014248751
2	0xbcfd1096	-0.030891698
